Machine_learning_pill_identifier-main/ei-pill_identifier-nn-classifier-tensorflow-lite-int8-quantized-model.lite (tflite, 66272 bytes, 3 tensors)

sequential/y_pred/MatMul;StatefulPartitionedCall/sequential/y_pred/MatMul i1 [6, 9216] scale=0.0035528417 zero_point=0
0.0 -0.071056835 0.0426341 0.046186943 0.0035528417 0.0 -0.024869893 0.014211367
-0.0071056834 -0.049739785 0.053292625 -0.010658525 0.02131705 0.031975575 0.08171536 0.0
0.010658525 -0.046186943 0.017764209 0.010658525 0.03908126 0.017764209 -0.010658525 -0.035528418
-0.014211367 -0.024869893 0.03908126 0.031975575 -0.014211367 0.024869893 0.056845468 0.014211367
0.02131705 -0.049739785 0.053292625 0.049739785 0.010658525 -0.014211367 -0.046186943 -0.0426341
-0.0071056834 -0.017764209 0.071056835 -0.02131705 0.02131705 0.0426341 0.13145514 0.02131705
-0.010658525 -0.046186943 0.0071056834 0.031975575 0.02131705 -0.010658525 0.014211367 -0.031975575
-0.028422734 -0.03908126 0.06039831 0.017764209 -0.0071056834 0.017764209 0.095926724 0.024869893
-0.017764209 -0.06039831 0.035528418 0.024869893 0.0071056834 0.0 0.028422734 -0.0071056834
-0.028422734 -0.06039831 0.035528418 -0.0071056834 0.028422734 0.010658525 0.024869893 0.02131705
0.0035528417 -0.024869893 -0.017764209 0.03908126 0.017764209 -0.02131705 -0.06395115 0.010658525
-0.02131705 -0.049739785 0.0426341 0.0 -0.02131705 -0.0426341 0.017764209 0.017764209
0.0 -0.014211367 -0.035528418 0.03908126 0.010658525 0.024869893 -0.06395115 -0.017764209
-0.010658525 -0.0071056834 0.0035528417 -0.02131705 0.017764209 0.017764209 0.0071056834 0.02131705
-0.017764209 -0.0035528417 0.014211367 0.0 0.010658525 0.0035528417 0.0 -0.024869893
-0.0035528417 0.0 0.049739785 -0.053292625 0.017764209 0.0 0.0 -0.024869893
0.0035528417 -0.024869893 0.010658525 0.017764209 0.028422734 0.02131705 0.02131705 -0.0035528417
0.014211367 -0.035528418 0.035528418 -0.028422734 0.0071056834 0.074609675 0.014211367 0.0035528417
0.028422734 -0.028422734 -0.028422734 -0.0071056834 -0.0035528417 0.0035528417 -0.0035528417 0.017764209
-0.0035528417 -0.017764209 -0.0035528417 0.0 -0.024869893 -0.024869893 -0.028422734 -0.014211367
-0.017764209 -0.035528418 -0.017764209 0.017764209 0.028422734 -0.017764209 -0.049739785 -0.017764209
-0.0071056834 -0.03908126 -0.046186943 0.0035528417 -0.0071056834 -0.028422734 -0.035528418 -0.03908126
0.0 -0.010658525 -0.02131705 -0.010658525 0.03908126 0.0071056834 -0.088821046 -0.031975575
0.017764209 -0.0426341 -0.02131705 -0.035528418 0.0035528417 -0.06039831 -0.02131705 -0.014211367
0.0 -0.014211367 -0.031975575 0.049739785 0.0426341 -0.024869893 -0.067503996 -0.017764209
0.028422734 -0.014211367 -0.014211367 0.014211367 0.02131705 -0.02131705 -0.010658525 0.024869893
0.0071056834 -0.02131705 -0.028422734 0.049739785 0.074609675 0.0035528417 -0.010658525 -0.035528418
0.035528418 -0.031975575 0.024869893 -0.024869893 0.049739785 -0.0071056834 0.056845468 0.0071056834
0.017764209 -0.03908126 0.035528418 0.067503996 0.08171536 -0.031975575 0.017764209 -0.035528418
0.017764209 -0.053292625 0.0 0.0 0.06039831 -0.031975575 0.049739785 -0.053292625
-0.0035528417 -0.028422734 -0.0035528417 0.06039831 0.024869893 -0.017764209 0.017764209 0.0071056834
0.02131705 -0.06395115 -0.02131705 -0.010658525 0.056845468 0.0071056834 0.028422734 0.0
00000000: 00ec 0c0d 0100 f904 fef2 0ffd 0609 1700
00000010: 03f3 0503 0b05 fdf6 fcf9 0b09 fc07 1004
00000020: 06f2 0f0e 03fc f3f4 fefb 14fa 060c 2506
00000030: fdf3 0209 06fd 04f7 f8f5 1105 fe05 1b07
00000040: fbef 0a07 0200 08fe f8ef 0afe 0803 0706
00000050: 01f9 fb0b 05fa ee03 faf2 0c00 faf4 0505
00000060: 00fc f60b 0307 eefb fdfe 01fa 0505 0206
00000070: fbff 0400 0301 00f9 ff00 0ef1 0500 00f9
00000080: 01f9 0305 0806 06ff 04f6 0af8 0215 0401
00000090: 08f8 f8fe ff01 ff05 fffb ff00 f9f9 f8fc
000000a0: fbf6 fb05 08fb f2fb fef5 f301 fef8 f6f5
000000b0: 00fd fafd 0b02 e7f7 05f4 faf6 01ef fafc
000000c0: 00fc f70e 0cf9 edfb 08fc fc04 06fa fd07
000000d0: 02fa f80e 1501 fdf6 0af7 07f9 0efe 1002
000000e0: 05f5 0a13 17f7 05f6 05f1 0000 11f7 0ef1
000000f0: fff8 ff11 07fb 0502 06ee fafd 1002 0800

sequential/conv2d/Conv2D;StatefulPartitionedCall/sequential/conv2d/Conv2D i1 [32, 3, 3, 3]
-59 65 61 -16 -58 -105 77 -23
-81 -79 92 3 15 -61 -34 -61
-31 18 127 -4 49 102 -19 10
-69 67 26 46 12 -26 127 -22
-94 112 -78 16 39 -55 -65 121
-112 -17 64 71 -52 91 -101 -115
80 50 85 24 -70 -17 -27 -127
-63 53 24 -51 -11 -45 101 -34
-96 -68 -25 63 75 -19 26 50
19 83 -72 79 -17 72 -32 99
-33 -127 77 -36 16 4 15 100
-68 9 -84 -62 70 -31 -49 6
9 -23 70 -109 -123 8 87 43
123 126 28 -20 -12 110 -103 2
57 22 26 127 93 81 -21 51
-2 -55 101 -11 77 34 -40 101
-45 63 69 78 -76 81 110 79
-3 69 116 30 9 18 -66 -89
23 -74 -10 -67 -83 42 -59 -47
-68 18 -127 4 40 63 63 73
-24 72 -102 -32 -97 15 53 -70
-41 100 -35 13 -24 -19 -19 -23
-77 21 -115 62 -74 21 -77 11
46 -19 -96 98 -127 -12 35 -27
59 -73 82 127 82 48 124 -22
-113 103 -79 20 11 91 82 36
-120 -110 77 -100 -31 17 -3 -53
21 -117 -72 124 -20 85 123 -70
8 -89 -15 90 -20 -69 -32 -42
-124 65 -10 -23 -42 50 -74 98
-73 65 127 5 37 103 56 58
89 64 125 -31 -5 69 110 99
00000000: c541 3df0 c697 4de9 afb1 5c03 0fc3 dec3
00000010: e112 7ffc 3166 ed0a bb43 1a2e 0ce6 7fea
00000020: a270 b210 27c9 bf79 90ef 4047 cc5b 9b8d
00000030: 5032 5518 baef e581 c135 18cd f5d3 65de
00000040: a0bc e73f 4bed 1a32 1353 b84f ef48 e063
00000050: df81 4ddc 1004 0f64 bc09 acc2 46e1 cf06
00000060: 09e9 4693 8508 572b 7b7e 1cec f46e 9902
00000070: 3916 1a7f 5d51 eb33 fec9 65f5 4d22 d865
00000080: d33f 454e b451 6e4f fd45 741e 0912 bea7
00000090: 17b6 f6bd ad2a c5d1 bc12 8104 283f 3f49
000000a0: e848 9ae0 9f0f 35ba d764 dd0d e8ed ede9
000000b0: b315 8d3e b615 b30b 2eed a062 81f4 23e5
000000c0: 3bb7 527f 5230 7cea 8f67 b114 0b5b 5224
000000d0: 8892 4d9c e111 fdcb 158b b87c ec55 7bba
000000e0: 08a7 f15a ecbb e0d6 8441 f6e9 d632 b662
000000f0: b741 7f05 2567 383a 5940 7de1 fb45 6e63

sequential/conv2d_1/Conv2D;StatefulPartitionedCall/sequential/conv2d_1/Conv2D i1 [16, 3, 3, 32]
-58 -34 -26 82 -40 -85 82 -49
92 -22 -82 -27 -45 -98 101 -53
93 -45 62 58 37 75 71 8
75 -45 -65 67 -3 -48 -68 68
3 2 91 0 -48 -50 -47 -97
-72 30 -87 28 60 53 63 25
13 -12 -95 81 39 -80 5 66
28 -1 -60 -12 -31 -62 -105 -61
-90 -10 -127 9 -52 29 25 83
-98 60 70 51 -44 -26 24 39
80 -59 28 1 12 53 -83 27
23 -68 28 -88 -115 -60 -76 13
62 -59 -14 82 46 -32 46 -102
-37 -24 -77 -42 -84 -57 119 57
-13 84 -44 48 106 71 24 -14
42 9 -12 30 19 65 24 -81
24 -102 38 -45 -2 10 93 -1
1 70 -17 -64 -101 -4 110 57
85 -67 -17 20 -77 35 26 -16
-81 -45 -101 -88 -94 -58 -15 -39
41 0 -49 30 36 49 20 -95
-106 52 76 58 -32 -51 28 69
-87 -2 58 -18 -69 -34 34 52
30 -10 55 51 -92 0 -30 50
2 -30 -31 -69 -92 62 28 46
-82 -46 92 -53 -97 -77 -13 -12
41 -6 42 34 31 -29 17 -22
-87 -38 -28 -14 44 -37 -103 -89
-21 -76 -56 -55 -12 -49 39 65
-71 -49 84 87 25 -87 25 40
9 -25 66 28 34 -4 2 30
48 -53 -51 29 -79 -87 -100 2
00000000: c6de e652 d8ab 52cf 5cea aee5 d39e 65cb
00000010: 5dd3 3e3a 254b 4708 4bd3 bf43 fdd0 bc44
00000020: 0302 5b00 d0ce d19f b81e a91c 3c35 3f19
00000030: 0df4 a151 27b0 0542 1cff c4f4 e1c2 97c3
00000040: a6f6 8109 cc1d 1953 9e3c 4633 d4e6 1827
00000050: 50c5 1c01 0c35 ad1b 17bc 1ca8 8dc4 b40d
00000060: 3ec5 f252 2ee0 2e9a dbe8 b3d6 acc7 7739
00000070: f354 d430 6a47 18f2 2a09 f41e 1341 18af
00000080: 189a 26d3 fe0a 5dff 0146 efc0 9bfc 6e39
00000090: 55bd ef14 b323 1af0 afd3 9ba8 a2c6 f1d9
000000a0: 2900 cf1e 2431 14a1 9634 4c3a e0cd 1c45
000000b0: a9fe 3aee bbde 2234 1ef6 3733 a400 e232
000000c0: 02e2 e1bb a43e 1c2e aed2 5ccb 9fb3 f3f4
000000d0: 29fa 2a22 1fe3 11ea a9da e4f2 2cdb 99a7
000000e0: ebb4 c8c9 f4cf 2741 b9cf 5457 19a9 1928
000000f0: 09e7 421c 22fc 021e 30cb cd1d b1a9 9c02
